…
Start Tensorboard with "tensorboard --logdir=runs", view at http://localhost:6006/
Hyperparameters {'optimizer': 'SGD', 'lr0': 0.01, 'momentum': 0.937, 'weight_decay': 0.0005, 'depth': 0.01, 'giou': 0.05, 'cls': 5, 'cls_pw': 1.0, 'obj': 1.0, 'obj_pw': 1.0, 'iou_t': 0.2, 'anchor_t': 4.0, 'fl_gamma': 0.0, 'hsv_h': 0.015, 'hsv_s': 0.7, 'hsv_v': 0.4, 'degrees': 0.0, 'translate': 0.0, 'scale': 0.5, 'shear': 0.0}
Overriding models/yolov4m-rgbd.yaml nc=80 with nc=2

                 from  n    params  module                                  arguments                     
  0                -1  1      6960  models.common.Conv                      [32, 24, 3, 1]                
  1                -1  1     10464  models.common.Conv                      [24, 48, 3, 2]                
  2                -1  1     11664  models.common.Bottleneck                [48, 48]                      
  3                -1  1     41664  models.common.Conv                      [48, 96, 3, 2]                
  4                -1  1     44448  models.common.BottleneckCSP             [96, 96, 1]                   
  5                -1  1    166272  models.common.Conv                      [96, 192, 3, 2]               
  6                -1  1    546624  models.common.BottleneckCSP             [192, 192, 5]                 
  7                -1  1    664320  models.common.Conv                      [192, 384, 3, 2]              
  8                -1  1   2180736  models.common.BottleneckCSP             [384, 384, 5]                 
  9                -1  1   2655744  models.common.Conv                      [384, 768, 3, 2]              
 10                -1  1   5759232  models.common.BottleneckCSP             [768, 768, 3]                 
 11                -1  1   4282368  models.common.SPPCSP                    [768, 384, 1]                 
 12                -1  1     74112  models.common.Conv                      [384, 192, 1, 1]              
 13                -1  1         0  torch.nn.modules.upsampling.Upsample    [None, 2, 'nearest']          
 14                 8  1     74112  models.common.Conv                      [384, 192, 1, 1]              
 15          [-1, -2]  1         0  models.common.Concat                    [1]                           
 16                -1  1    555264  models.common.BottleneckCSP2            [384, 192, 1]                 
 17                -1  1     18624  models.common.Conv                      [192, 96, 1, 1]               
 18                -1  1         0  torch.nn.modules.upsampling.Upsample    [None, 2, 'nearest']          
 19                 6  1     18624  models.common.Conv                      [192, 96, 1, 1]               
 20          [-1, -2]  1         0  models.common.Concat                    [1]                           
 21                -1  1    139392  models.common.BottleneckCSP2            [192, 96, 1]                  
 22                -1  1    166272  models.common.Conv                      [96, 192, 3, 1]               
 23                -2  1    166272  models.common.Conv                      [96, 192, 3, 2]               
 24          [-1, 16]  1         0  models.common.Concat                    [1]                           
 25                -1  1    555264  models.common.BottleneckCSP2            [384, 192, 1]                 
 26                -1  1    664320  models.common.Conv                      [192, 384, 3, 1]              
 27                -2  1    664320  models.common.Conv                      [192, 384, 3, 2]              
 28          [-1, 11]  1         0  models.common.Concat                    [1]                           
 29                -1  1   2216448  models.common.BottleneckCSP2            [768, 384, 1]                 
 30                -1  1   2655744  models.common.Conv                      [384, 768, 3, 1]              
 31      [22, 26, 30]  1     32472  models.yolo.Detect                      [2, [[15, 19, 24, 30, 35, 41], [48, 52, 65, 72, 89, 100], [118, 133, 157, 176, 197, 241]], [194, 386, 770]]
Using CPU

Model Summary: 266 layers, 2.43726e+07 parameters, 2.43726e+07 gradients

Optimizer groups: 89 .bias, 93 conv.weight, 84 other
Image sizes 1280 train, 1280 test
Using 4 dataloader workers
…
